…
:{"status":"ok","timestamp":1647569197692,"user_tz":-540,"elapsed":391,"user":{"displayName":"이충일","photoUrl":"https://lh3.googleusercontent.com/a/default-user=s64","userId":"14549651031576837673"}},"outputId":"ad211820-abdd-4364-e670-55d8891c9843"},"execution_count":null,"outputs":[{"output_type":"stream","name":"stdout","text":["Model: \"sequential_1\"\n","_________________________________________________________________\n"," Layer (type)                Output Shape              Param #   \n","=================================================================\n"," conv2d_4 (Conv2D)           (None, 148, 148, 32)      320       \n","                                                                 \n"," max_pooling2d_4 (MaxPooling  (None, 74, 74, 32)       0         \n"," 2D)                                                             \n","                                                                 \n"," conv2d_5 (Conv2D)           (None, 72, 72, 64)        18496     \n","                                                                 \n"," max_pooling2d_5 (MaxPooling  (None, 36, 36, 64)       0         \n"," 2D)                                                             \n","                                                                 \n"," conv2d_6 (Conv2D)           (None, 34, 34, 128)       73856     \n","                                                                 \n"," max_pooling2d_6 (MaxPooling  (None, 17, 17, 128)      0         \n"," 2D)                                                             \n","                                                                 \n"," conv2d_7 (Conv2D)           (None, 15, 15, 128)       147584    \n","                                                                 \n"," max_pooling2d_7 (MaxPooling  (None, 7, 7, 128)        0         \n"," 2D)                                                             \n","                                                                 \n"," flatten_1 (Flatten)         (None, 6272)              0         \n","                                                                 \n"," dense_2 (Dense)             (None, 512)               3211776   \n","                                                                 \n"," dense_3 (Dense)             (None, 1)                 513       \n","                                                                 \n","=================================================================\n","Total params: 3,452,545\n","Trainable params: 3,452,545\n","Non-trainable params: 0\n","_________________________________________________________________\n"]}]},{"cell_type":"code","source":["from tensorflow.keras import optimizers\n","\n","model.c
…
