…
base_uri":"https://localhost:8080/"},"id":"7eAfI_4ikEod","executionInfo":{"status":"ok","timestamp":1661493629661,"user_tz":-540,"elapsed":18,"user":{"displayName":"이충일","userId":"14549651031576837673"}},"outputId":"12ef5499-2370-4cf4-d882-7eda9f34fe77"},"execution_count":6,"outputs":[{"output_type":"stream","name":"stdout","text":["Model: \"sequential\"\n","_________________________________________________________________\n"," Layer (type)                Output Shape              Param #   \n","=================================================================\n"," conv2d (Conv2D)             (None, 148, 148, 32)      320       \n","                                                                 \n"," max_pooling2d (MaxPooling2D  (None, 74, 74, 32)       0         \n"," )                                                               \n","                                                                 \n"," conv2d_1 (Conv2D)           (None, 72, 72, 64)        18496     \n","                                                                 \n"," max_pooling2d_1 (MaxPooling  (None, 36, 36, 64)       0         \n"," 2D)                                                             \n","                                                                 \n"," conv2d_2 (Conv2D)           (None, 34, 34, 128)       73856     \n","                                                                 \n"," max_pooling2d_2 (MaxPooling  (None, 17, 17, 128)      0         \n"," 2D)                                                             \n","                                                                 \n"," conv2d_3 (Conv2D)           (None, 15, 15, 128)       147584    \n","                                                                 \n"," max_pooling2d_3 (MaxPooling  (None, 7, 7, 128)        0         \n"," 2D)                                                             \n","                                                                 \n"," flatten (Flatten)           (None, 6272)              0         \n","                                                                 \n"," dense (Dense)               (None, 512)               3211776   \n","                                                                 \n"," dense_1 (Dense)             (None, 1)                 513       \n","                                                                 \n","=================================================================\n","Total params: 3,452,545\n","Trainable params: 3,452,545\n","Non-trainable params: 0\n","_________________________________________________________________\n"]}]},{"cell_type":"code","source":["from tensorflow.keras import optimizers\n","\n","model.c
…
